nets/value.pth (torch_old, 644141 bytes, 25 tensors)

a1.weight f4 [16, 5, 3, 3]
-0.045853302 0.16554938 0.22996792 0.024145188 -0.006624442 -0.011274837 0.01514741 -0.08484286
-0.095834814 0.019944966 -0.15653884 0.09112034 -0.07111347 0.027404392 -0.14874159 0.09054812
0.10969312 0.048031252 -0.07717489 -0.12030024 0.00030300417 -0.015061976 -0.12548593 -0.13274284
-0.15982561 0.111554995 -0.15462671 0.2062871 0.053910267 0.20746575 0.03146545 -0.15092249
0.015339562 -0.092569605 0.11163122 0.056063347 -0.053065147 0.08193275 0.11414247 0.00017268953
-0.09808212 -0.04947818 -0.09240476 0.006037675 0.070506215 0.04039685 -0.053163897 0.08001081
-0.025513865 -0.06614568 0.11748301 -0.04812927 0.070113845 -0.105455555 -0.16415748 -0.008206565
-0.09031329 0.020190861 -0.0099978745 -0.033026002 0.062108107 -0.108569205 -0.017945385 0.13835974
-0.11386142 -0.02204508 0.06869337 0.0033450013 0.027286436 -0.24714512 -0.07351527 0.25939354
0.14031813 0.14846268 -0.02824607 0.14361466 0.03014516 0.16845764 -0.16221334 0.057106566
-0.011333979 -0.15768072 0.019714745 0.019559423 0.055148862 -0.1342594 0.08128355 0.06970864
-0.041537043 0.09352448 -0.07953052 0.036259394 0.024592455 -0.038264006 -0.024634164 0.12749238
0.16898161 0.13174626 0.0658039 0.07217024 -0.08462478 -0.033781614 0.06467122 -0.04689384
0.19983213 -0.0253301 -0.017423037 -0.03599533 -0.14613108 0.15616646 -0.09950712 0.15785858
-0.0047094966 -0.19273168 -0.115075596 -0.042075194 -0.18551311 0.14366585 0.129689 0.03481014
0.056508124 0.0610555 -0.055338565 0.077907115 -0.05349281 0.10813954 0.19262922 -0.07842108
-0.07767573 -0.06257428 -0.045921203 -0.048571568 -0.045837466 0.038869943 0.10351332 0.14997081
0.01130681 -0.14177409 0.09386135 0.12841463 0.014948731 -0.02885909 0.17284565 0.060935844
0.03656775 -0.16808751 -0.14786287 -0.13572484 0.034828447 -0.022932705 0.092338495 -0.13879004
-0.21888357 -0.21160372 -0.028529553 -0.2412631 0.07565695 0.09536553 0.021609753 0.14582732
0.023433179 -0.013673581 0.105025284 -0.0011127199 -0.056278337 -0.13268918 -0.107627824 0.04406482
-0.18822306 0.21415687 0.06671955 -0.112617366 0.15126689 0.0712884 -0.007750338 0.122433454
-0.1245616 0.009148216 -0.059034586 -0.06594125 -0.16480654 0.15131605 0.045853708 0.102333985
0.1474817 0.015479915 0.098398745 0.12498264 -0.115693204 0.045576118 -0.017033305 0.058168437
-0.0049779867 0.16644499 0.11784457 -0.1677096 -0.03662595 -0.06761655 -0.102298215 0.044666544
0.10146017 -0.17241617 0.037600454 0.098362096 -0.042333517 -0.016916273 -0.016130568 -0.15171368
-0.1114221 -0.062320746 0.22475271 -0.1459338 0.10845351 0.06353087 0.033681132 0.09155023
0.033139095 -0.07766457 -0.0945786 0.0033279562 -0.023313077 0.09641006 0.060322713 -0.10809284
0.104422174 0.185474 0.13417862 -0.035617646 0.10230526 -0.20102584 -0.13168152 0.024481442
-0.22027697 -0.10567604 0.0853155 -0.029043043 -0.12660176 0.09431812 0.045453127 -0.032147653
-0.08766366 0.13252786 -0.20857053 0.18359382 0.036462862 -0.16465382 -0.12260762 0.07478464
-0.012669492 -0.30078167 0.025280759 -0.049808837 -0.17175293 -0.12836415 0.22067091 -0.08514738
00000000: acd0 3bbd c785 293e b67c 6b3e 21cc c53c
00000010: d911 d9bb 18ba 38bc d82c 783c 18c2 adbd
00000020: 0b45 c4bd a063 a33c b84b 20be 4d9d ba3d
00000030: f0a3 91bd 2d7f e03c b74f 18be 4b71 b93d
00000040: c9a6 e03d 6bbc 443d de0d 9ebd f95f f6bd
00000050: 88dc 9e39 82c6 76bc 627f 00be bded 07be
00000060: 53a9 23be f276 e43d 7756 1ebe ed3c 533e
00000070: 03d1 5c3d e771 543e eae1 003d 6d8b 1abe
00000080: c952 7b3c 2295 bdbd e99e e43d aea2 653d
00000090: d75a 59bd 5ccc a73d 87c3 e93d fe13 3539
000000a0: 47df c8bd a2a9 4abd b53e bdbd b0d7 c53b
000000b0: 9065 903d 2b77 253d 63c2 59bd b5dc a33d
000000c0: 7402 d1bc 6377 87bd ef9a f03d 3323 45bd
000000d0: d997 8f3d 15f9 d7bd e618 28be d474 06bc
000000e0: 2df6 b8bd 4e67 a53c 20ce 23bc 4646 07bd
000000f0: 1265 7e3d 8859 debd 3302 93bc 2dae 0d3e
00000100: 2d30 e9bd e297 b4bc 1caf 8c3d cf37 5b3b
00000110: ce87 df3c 9c13 7dbe 2d8f 96bd 3bcf 843e
00000120: 8eaf 0f3e 9a06 183e 4d64 e7bc b90f 133e
00000130: fcf2 f63c 2980 2c3e 411b 26be 93e8 693d
00000140: 27b2 39bc 0e77 21be d180 a13c 153b a03c
00000150: c6e3 613d 4c7b 09be fd77 a63d 67c3 8e3d
00000160: bf22 2abd c389 bf3d e6e0 a2bd bb84 143d
00000170: 1e76 c93c b8ba 1cbd 96cd c9bc 5d8d 023e
00000180: 8409 2d3e 7ee8 063e 32c4 863d fecd 933d
00000190: c24f adbd 975e 0abd 5872 843d c113 40bd
000001a0: cba0 4c3e 1281 cfbc c2ba 8ebc d76f 13bd
000001b0: 63a3 15be 1aea 1f3e 64ca cbbd aea5 213e
000001c0: 1f52 9abb 745b 45be c1ac ebbd 0a57 2cbd
000001d0: 26f7 3dbe 241d 133e 31cd 043e 1495 0e3d
000001e0: 1075 673d 5515 7a3d b1aa 62bd c48d 9f3d
000001f0: 471b 5bbd 4378 dd3d 9840 453e 3b9b a0bd
00000200: 7414 9fbd f226 80bd df17 3cbd fbf2 46bd
00000210: 11c0 3bbd 1736 1f3d cbfe d33d f391 193e
00000220: 3340 393c 3a2d 11be 613a c03d 207f 033e
00000230: 86eb 743c e669 ecbc 73fe 303e dd97 793d
00000240: 11c8 153d 221f 2cbe 5d69 17be 74fb 0abe
00000250: 46a8 0e3d 5edd bbbc f71b bd3d fa1e 0ebe
00000260: 0423 60be a5ae 58be cfb6 e9bc ad0d 77be
00000270: 08f2 9a3d 014f c33d f006 b13c c253 153e
00000280: f0f6 bf3c 2807 60bc 7f17 d73d afd8 91ba
00000290: 1d84 66bd acdf 07be fa6b dcbd 507d 343d
000002a0: 8cbd 40be f04b 5b3e 42a4 883d efa3 e6bd
000002b0: b5e5 1a3e a7ff 913d 8cf6 fdbb 64be fa3d
000002c0: 271a ffbd 66e2 153c 40ce 71bd 350c 87bd
000002d0: 0cc3 28be 98f2 1a3e 19d1 3b3d 7b94 d13d
000002e0: 7105 173e 789f 7d3c 4885 c93d e6f6 ff3d
000002f0: 8ff0 ecbd 06ae 3a3d 6e89 8bbc 0742 6e3d
00000300: 611e a3bb 8e70 2a3e 7e58 f13d 11bc 2bbe
00000310: 1805 16bd 8c7a 8abd ba81 d1bd 44f4 363d
00000320: 59ca cf3d dd8d 30be ef02 1a3d 1172 c93d
00000330: e965 2dbd ff93 8abc 4124 84bc d55a 1bbe
00000340: 4531 e4bd 0a44 7fbd 9325 663e ac6f 15be
00000350: e01c de3d 791c 823d 3af5 093d b07e bb3d
00000360: dcbc 073d 9a0e 9fbd 6db2 c1bd d719 5a3b
00000370: 11fb bebc a372 c53d f314 773d c75f ddbd
00000380: 4bdb d53d e5ec 3d3e 1f66 093e cfe3 11bd
00000390: 6c85 d13d b8d9 4dbe 85d7 06be 4e8d c83c
000003a0: 4990 61be ae6c d8bd e5b9 ae3d adeb edbc
000003b0: e4a3 01be dc29 c13d 0f2d 3a3d 42ad 03bd
000003c0: 0189 b3bd 62b5 073e 8393 55be 0500 3c3e
000003d0: 155a 153d 039b 28be b419 fbbd b028 993d
000003e0: b393 4fbc 0e00 9abe 9819 cf3c 5a04 4cbd
000003f0: 00e0 2fbe e471 03be 8ef7 613e c061 aebd

a1.bias f4 [16]
0.0672798 -0.05356422 -0.10830713 -0.007823478 0.08578639 0.033875518 0.13140069 -0.073670916
-0.041763764 -0.057683766 0.021598231 -0.024422517 0.06839174 0.059016928 -0.13176323 0.025001436
00000000: fec9 893d 2866 5bbd 21d0 ddbd 0c2e 00bc
00000010: c6b0 af3d 0ec1 0a3d e78d 063e c7e0 96bd
00000020: 7b10 2bbd d045 6cbd c6ee b03c bb11 c8bc
00000030: f810 8c3d bcbb 713d f1ec 06be d0cf cc3c

a2.weight f4 [16, 16, 3, 3]
0.067031376 -0.017329605 -0.10580986 0.06622472 0.08177493 -0.03373135 -0.09305139 -0.04017682
0.03609231 0.045595836 0.059375167 0.10337684 0.06597356 -0.075259216 0.0026192449 -0.034444317
-0.008852371 -0.02910543 -0.011462199 0.06267384 0.07653018 -0.049919635 0.14162418 0.054133058
-0.10653643 0.030456832 0.088985816 -0.028373178 0.036592677 0.0042376285 0.11167943 0.003554268
0.038891815 0.008360905 0.027233582 -0.025129942 0.0054120626 -0.10664707 0.0032089304 0.0029839382
-0.08873725 -0.048152994 -0.085220784 0.113394 -0.04925301 0.026100883 -0.010188177 -0.06563751
0.032366775 -0.001249443 -0.06597113 0.113105476 0.08925288 0.07585277 0.06724116 -0.20535602
-0.051899705 -0.021792868 0.1013892 0.006646963 0.10467548 -0.035380576 0.117050566 -0.053513948
-0.07032493 0.09252254 0.017310616 -0.08843938 -0.017601006 -0.017049108 0.12263839 -0.038132653
-0.055513542 -0.07375533 0.050042152 -0.050639182 -0.022941586 -0.0061778813 0.012841578 -0.09658678
0.092604466 -0.037219603 0.087762125 -0.116965435 -0.05778578 -0.06998073 0.019617796 0.06528303
-0.09483106 -0.047769804 0.04730335 0.062044937 0.02790139 0.020135341 -0.054234233 0.07991375
-0.10113615 -0.05391852 -0.02737833 0.043838304 0.13092993 0.107792795 -0.08153493 0.12754351
-0.098844625 0.017205268 0.01586594 -0.052378885 -0.12442916 -0.04026556 0.054239932 -0.15351754
-0.054008856 0.0111596165 0.0006768296 -0.062280864 -0.046266593 -0.006501808 0.03141802 -0.012886722
-0.056360252 -0.06747166 0.04754107 0.05935608 0.09096132 0.032189194 0.012706112 0.059557624
-0.19127072 0.064043194 0.035032187 -0.06251012 -0.12048832 -0.09270576 0.0019968548 0.08986176
-0.092125066 -0.06862503 0.06543175 -0.0077682063 -0.078523256 -0.025968257 0.043458216 0.0004768987
-0.055753067 0.046157353 -0.034405388 0.053272102 -0.0026668543 0.061774798 0.10631925 -0.0745173
-0.07491062 -0.02482675 -0.09161433 0.028251931 0.034955442 -0.09385885 0.14234217 0.08253837
0.0038214396 -0.0111107975 -0.009504415 0.038637064 0.11628911 -0.06350928 -0.014828378 0.0021941147
0.09255182 0.086451195 -0.112081625 -0.1172814 0.10600113 -0.022504762 0.036308218 0.10935043
0.066976905 0.025986731 0.027282953 -0.03267261 0.03487782 -0.02227057 0.028283408 0.017210973
-0.06549664 0.018246725 -0.07285474 0.045182135 -0.09022963 0.052650996 -0.10660504 0.060877822
-0.033250287 0.07612968 -0.12025492 0.045238063 0.04989867 -0.08204858 0.048919395 -0.12409885
-0.106804304 0.011893709 -0.14315282 -0.037923515 0.04596402 0.029707886 0.06231724 0.065297864
-0.09595419 -0.0024836813 -0.007888815 -0.0072053447 -0.044876553 0.027031578 -0.15011705 -0.03838506
-0.056508377 0.08617462 -0.16314267 0.0032930395 -0.042577267 0.012567762 -0.035844658 -0.05277358
-0.08255351 -0.031135881 -0.009160186 -0.07158302 -0.06508655 0.078249425 -0.018383637 0.05063136
0.06393993 0.007790749 -0.11694294 -0.09714368 0.15415356 -0.07095821 -0.05277943 -0.15522505
-0.062291592 0.03890724 0.079236075 0.09409109 0.012002844 -0.014009854 0.07100364 -0.027135758
0.051493887 -0.020458328 0.05484237 -0.07100807 0.050857063 -0.025255606 -0.014414302 -0.063596316
00000000: bf47 893d d1f6 8dbc d7b2 d8bd d3a0 873d
00000010: 9d79 a73d e229 0abd ba91 bebd 7390 24bd
00000020: 88d5 133d b3c2 3a3d 6033 733d 3db7 d33d
00000030: 251d 873d 8121 9abd a3a7 2b3b 7c15 0dbd
00000040: 8909 11bc 836e eebc f2cb 3bbc 245b 803d
00000050: dbbb 9c3d 8878 4cbd ee05 113e a0ba 5d3d
00000060: c62f dabd 9b80 f93c 323e b63d de6e e8bc
00000070: 34e2 153d cedb 8a3b 2fb8 e43d b9ee 683b
00000080: 064d 1f3d 2dfc 083c f618 df3c 4fdd cdbc
00000090: ac57 b13b c769 dabd eb4c 523b 2d8e 433b
000000a0: e0bb b5bd 133c 45bd 3c88 aebd 1d3b e83d
000000b0: 86bd 49bd 85d1 d53c 50ec 26bc f56c 86bd
000000c0: 0693 043d 5ac4 a3ba df1b 87bd d8a3 e73d
000000d0: 37ca b63d b258 9b3d bcb5 893d d948 52be
000000e0: c994 54bd f586 b2bc 24a5 cf3d c4ce d93b
000000f0: 1960 d63d 39eb 10bd 35b8 ef3d 7131 5bbd
00000100: 8406 90bd 757c bd3d fece 8d3c b51f b5bd
00000110: fc2f 90bc 92aa 8bbc d629 fb3d fc30 1cbd
00000120: 2b62 63bd 090d 97bd 00f9 4c3d 086b 4fbd
00000130: feef bbbc d36f cabb 7b65 523c 4acf c5bd
00000140: 69a7 bd3d 9573 18bd a1bc b33d 938b efbd
00000150: c8b0 6cbd 0f52 8fbd 80b5 a03c 1cb3 853d
00000160: c936 c2bd 45aa 43bd 28c1 413d d522 7e3d
00000170: 7591 e43c dff2 a43c b724 5ebd d2a9 a33d
00000180: 7820 cfbd abd9 5cbd 8548 e0bc cb8f 333d
00000190: 7f12 063e 78c2 dc3d c9fb a6bd c49a 023e
000001a0: 0d6f cabd 10f2 8c3c 4af9 813c 3e8b 56bd
000001b0: b7d4 febd 80ed 24bd b12a 5e3d b433 1dbe
000001c0: 6438 5dbd d3d6 363c 446d 313a 381a 7fbd
000001d0: 0a82 3dbd 1e0d d5bb 2fb0 003d d422 53bc
000001e0: 02da 66bd 952e 8abd 6dba 423d 5c1f 733d
000001f0: ee49 ba3d d1d8 033d 4c2d 503c b2f2 733d
00000200: 79dc 43be 1429 833d e97d 0f3d 4e05 80bd
00000210: 95c2 f6bd 84dc bdbd aadd 023b 7109 b83d
00000220: 11ac bcbd 488b 8cbd 1501 863d 708c febb
00000230: cdd0 a0bd 62bb d4bc 3e01 323d 4308 fa39
00000240: 545d 64bd 7e0f 3d3d aaec 0cbd d933 5a3d
00000250: 64c6 2ebb 9207 7d3d e8bd d93d 879c 98bd
00000260: bd6a 99bd 7861 cbbc 4ba0 bbbd 9870 e73c
00000270: 702d 0f3d 1239 c0bd 25c2 113e e009 a93d
00000280: 1e71 7a3b 100a 36bc 68b8 1bbc e641 1e3d
00000290: fc28 ee3d 2711 82bd baf2 72bc 23cb 0f3b
000002a0: cf8b bd3d 530d b13d 0d8b e5bd 3b31 f0bd
000002b0: 1f17 d93d e85b b8bc edb7 143d 1ef3 df3d
000002c0: 302b 893d 20e2 d43c 8080 df3c b7d3 05bd
000002d0: 0cdc 0e3d c570 b6bc 9bb2 e73c 07fe 8c3c
000002e0: 1a23 86bd 287a 953c de34 95bd e710 393d
000002f0: 50ca b8bd 92a8 573d be53 dabd 065b 793d
00000300: 7431 08bd e1e9 9b3d 3648 f6bd 8c4b 393d
00000310: 8c62 4c3d 1609 a8bd b45f 483d 8a27 febd
00000320: 37bc dabd d5dd 423c a796 12be b055 1bbd
00000330: c544 3c3d f45d f33c 5d40 7f3d e3ba 853d
00000340: a183 c4bd 42c5 22bb 1740 01bc d01a ecbb
00000350: 7ad0 37bd 5471 dd3c 49b8 19be a739 1dbd
00000360: 5475 67bd 527c b03d df0e 27be 09d0 573b
00000370: 8065 2ebd 04e9 4d3c d9d1 12bd 1c29 58bd
00000380: d111 a9bd ad10 ffbc 9b14 16bc 1e9a 92bd
00000390: 194c 85bd 3c41 a03d 4899 96bc d462 4f3d
000003a0: f0f2 823d 8a49 ff3b c87f efbd 44f3 c6bd
000003b0: 6eda 1d3e 8a52 91bd 3e2f 58bd 51f3 1ebe
000003c0: 7825 7fbd 335d 1f3d 8646 a23d d4b2 c03d
000003d0: 94a7 443c 9689 65bc 5b6a 913d cf4b debc
000003e0: 41eb 523d 3998 a7bc 65a2 603d ae6c 91bd
000003f0: 7f4f 503d d8e4 cebc f729 6cbc c93e 82bd

a2.bias f4 [16]
0.016514393 0.031132488 0.027634108 0.018446889 -0.03497639 -0.02486811 -0.023290357 -0.0262563
0.026434582 0.008777986 0.028647646 0.09507593 0.09855152 -0.0566657 -0.016325401 -0.035872508
00000000: 3149 873c 8f09 ff3c ed60 e23c ee1d 973c
00000010: 6743 0fbd 35b8 cbbc 6bcb bebc 7417 d7bc
00000020: 568d d83c 8bd1 0f3c 78ae ea3c 2bb7 c23d
00000030: 61d5 c93d 4b1a 68bd d9bc 85bc 0def 12bd

a3.weight f4 [32, 16, 3, 3]
-0.06340493 -0.049996022 -0.026361436 -0.0829751 -0.09720708 -0.012176474 -0.09133055 -0.03943548
-0.012245229 0.04038942 -0.083954826 0.02814487 -0.092337504 0.12437608 -0.0027395617 -0.101844735
0.02785664 0.07903594 -0.12421812 -0.04418255 0.1308117 -0.072884224 0.0013308316 0.13170777
0.06327023 0.05891586 0.044480737 0.013452712 0.05897792 -0.124523915 0.04989034 0.06847146
0.025309991 0.039895765 0.019484775 0.00215754 0.048133653 0.080690496 0.075987644 -0.08898999
-0.010034802 0.0012582258 -0.049920022 0.12386071 0.026635673 -0.0703274 -0.051616147 -0.025315123
-0.03228701 -0.0101130465 0.019618867 0.020230083 -0.13423015 0.074948326 -0.04803481 -0.08873531
0.021871164 0.09228835 -0.062461723 -0.05872527 0.016121076 -0.036611248 0.06315793 -0.07563469
-0.019099968 0.010563184 -0.07172163 -0.047567483 -0.013986236 -0.016696269 0.078190215 0.014431665
0.08499181 -0.07839838 0.015968947 -0.04161518 -0.04441876 0.048222784 0.006750552 0.115613766
0.0060571292 0.036998365 0.03003344 0.05560204 -0.044482388 0.07489143 0.04648468 -0.10274907
-0.113975786 -0.031813644 0.007755471 -0.06176502 -0.05215874 -0.10905753 0.05257786 -0.015845519
-0.05501247 -0.0802967 -0.06308628 -0.023584357 -0.04998314 0.004182097 0.0068272785 -0.14597534
-0.009047023 0.0059772115 -0.00024840012 0.06155 0.11937469 -0.023670992 0.06588982 -0.0283225
0.048337482 -0.03922114 0.003929414 0.07245837 0.14616033 -0.063095994 -0.038756095 0.022504786
0.00970134 -0.013299857 0.05520168 0.07646059 0.16556153 -0.12457977 0.019413661 -0.036232825
-0.011540451 0.020915845 0.0026444583 -0.05140319 -0.010157466 0.028649533 -0.045924798 0.09979665
-0.07486981 -0.07098618 0.012899403 -0.04057445 -0.08314604 -0.19183977 -0.091738395 0.049998116
-0.08117 0.09033683 -0.041482937 0.023247115 -0.03385541 0.06194093 -0.0097269965 0.07929269
0.02824725 0.05652026 -0.014389748 0.06132844 -0.029456697 0.0070174313 0.028247071 0.051005557
-0.026982065 0.024464041 0.07288448 -0.046171166 0.07238992 -0.12077188 0.003736725 0.08734614
0.11604821 0.002786525 -0.0517209 0.10923976 -0.10275432 -0.06247099 0.030979987 0.04925809
-0.057844397 0.006783221 0.037958037 0.07322497 0.13214795 -0.059444968 -0.08368668 0.06359385
0.115760684 0.12109096 -0.05521992 0.05931707 -0.0917447 -0.033891756 -0.013752155 0.037997287
-0.20837651 0.10978497 -0.16010033 0.029863035 -0.0812017 -0.08140248 -0.113885626 -0.04770752
0.01864242 -0.08665214 0.007237106 0.0019234765 -0.039666113 0.04734919 0.08948934 -0.025138712
0.044433303 0.054334883 -0.10251444 -0.07482804 0.08725739 -0.062354367 -0.016201267 0.01957164
0.0005014409 -0.025657881 -0.0879101 -0.079053976 0.0077744625 -0.055638663 -0.113040105 0.1160216
-0.018000444 0.050710995 -0.041867968 -0.08853122 0.048289053 0.023359265 0.027293228 0.06459827
-0.031961724 0.0022478553 0.04294544 -0.021416394 0.01831258 0.03762868 0.024677081 -0.037141632
-0.096396185 -0.068822175 0.062379926 -0.07802199 0.05122332 0.060631488 0.041090623 0.1225214
-0.079963386 0.025461255 -0.07943323 0.036765203 0.1030323 -0.015601408 0.0313864 0.07177979
00000000: 72da 81bd a1c8 4cbd f0f3 d7bc d9ee a9bd
00000010: 8114 c7bd d57f 47bc 830b bbbd 1987 21bd
00000020: 37a0 48bc 606f 253d 82f0 abbd 1290 e63c
00000030: 721b bdbd e3b8 fe3d 388a 33bb f993 d0bd
00000040: 9c33 e43c 98dd a13d 1266 febd c3f8 34bd
00000050: 81f3 053e 5344 95bd 4c6f ae3a 67de 063e
00000060: d393 813d c251 713d 6f31 363d c468 5c3c
00000070: d592 713d 6506 ffbd d059 4c3d c43a 8c3d
00000080: e656 cf3c be69 233d 899e 9f3c 8465 0d3b
00000090: cb27 453d 0f41 a53d 699f 9b3d 6240 b6bd
000000a0: 0369 24bc 0deb a43a f078 4cbd afaa fd3d
000000b0: 0e33 da3c d007 90bd 746b 53bd a961 cfbc
000000c0: 623f 04bd 31b1 25bc bfb7 a03c 8fb9 a53c
000000d0: a173 09be 827e 993d 26c0 44bd dcba b5bd
000000e0: 282b b33c ad01 bd3d ddd7 7fbd e989 70bd
000000f0: 5910 843c adf5 15bd f258 813d 5ce6 9abd
00000100: 8977 9cbc 3411 2d3c cae2 92bd 1fd6 42bd
00000110: 8726 65bc 9dc6 88bc 3122 a03d ca72 6c3c
00000120: 3010 ae3d 548f a0bd 4fd1 823c ae74 2abd
00000130: 72f0 35bd 4185 453d bc33 dd3b e9c6 ec3d
00000140: e27a c63b 998b 173d b008 f63c f7be 633d
00000150: 2a33 36bd ae60 993d b866 3e3d 1b6e d2bd
00000160: 236c e9bd 064f 02bd 9b21 fe3b 51fd 7cbd
00000170: 67a4 55bd 8e59 dfbd e25b 573d 76ce 81bc
00000180: c154 61bd 9972 a4bd 6133 81bd fb33 c1bc
00000190: 1fbb 4cbd f909 893b 5db7 df3b 8f7a 15be
000001a0: f739 14bc 7cdc c33b b33b 82b9 da1b 7c3d
000001b0: b87a f43d abe9 c1bc 3ef1 863d 9604 e8bc
000001c0: 86fd 453d 59a6 20bd 50c2 803b 0e65 943d
000001d0: 0eab 153e 7938 81bd b6be 1ebd f55b b83c
000001e0: 5ff2 1e3c a5e7 59bc 281b 623d 5f97 9c3d
000001f0: f688 293e ae23 ffbd 6609 9f3c df68 14bd
00000200: 2914 3dbc b557 ab3c a64e 2d3b 278c 52bd
00000210: 806b 26bc 6db2 ea3c a41b 3cbd 3062 cc3d
00000220: 5855 99bd 3461 91bd 0558 533c 6531 26bd
00000230: 7948 aabd a571 44be 57e1 bbbd d3ca 4c3d
00000240: 753c a6bd 8402 b93d 03ea 29bd bc70 be3c
00000250: f8ab 0abd c6b5 7d3d fb5d 1fbc 3564 a23d
00000260: c766 e73c ca81 673d fac2 6bbc 8833 7b3d
00000270: 2c4f f1bc 7bf2 e53b 6766 e73c 34eb 503d
00000280: 7e09 ddbc d068 c83c 7544 953d fa1d 3dbd
00000290: 2b41 943d 3f57 f7bd d8e3 743b 88e2 b23d
000002a0: afaa ed3d 229e 363b 4bd9 53bd 18b9 df3d
000002b0: db70 d2bd 95e1 7fbd bec9 fd3c dac2 493d
000002c0: 3fee 6cbd c845 de3b e379 1b3d f9f6 953d
000002d0: cb51 073e 917c 73bd ec63 abbd 7e3d 823d
000002e0: f013 ed3d 8afe f73d 482e 62bd 75f6 723d
000002f0: a5e4 bbbd 15d2 0abd b850 61bc 0ba3 1b3d
00000300: a760 55be f1d6 e03d 57f1 23be 53a3 f43c
00000310: 144d a6bd 58b6 a6bd de3c e9bd f668 43bd
00000320: fdb7 983c ad76 b1bd 3f25 ed3b 291d fc3a
00000330: ef78 22bd 39f1 413d 3046 b73d b3ef cdbc
00000340: b2ff 353d 418e 5e3d 17f3 d1bd 723f 99bd
00000350: 01b4 b23d 4b67 7fbd 85b8 84bc b454 a03c
00000360: 2173 033a 7a30 d2bc 360a b4bd 0de7 a1bd
00000370: ebc0 fe3b 5ee5 63bd 9281 e7bd bc9c ed3d
00000380: ab75 93bc 55b6 4f3d bf7d 2bbd db4f b5bd
00000390: beca 453d ee5b bf3c 0c96 df3c 194c 843d
000003a0: 4cea 02bd c150 133b 8fe7 2f3d 6f71 afbc
000003b0: 4404 963c 8820 1a3d 9727 ca3c d321 18bd
000003c0: 5d6b c5bd a4f2 8cbd 1882 7f3d fec9 9fbd
000003d0: 8bcf 513d b958 783d a44e 283d 80ec fa3d
000003e0: d8c3 a3bd 1f94 d03c e4ad a2bd 1c97 163d
000003f0: 9902 d33d 0c9d 7fbc 078f 003d 4801 933d

a3.bias f4 [32]
0.05077742 0.0002466012 0.04607596 -0.065716214 0.032240905 -0.061700027 -0.016350236 -0.014864219
0.03238579 -0.013632711 -0.04625504 -0.097236186 0.020073196 -0.052344486 0.0070216847 0.03134726
0.004649883 -0.070133604 -0.053760085 -0.10491938 -0.0037872726 0.10868975 -0.003111717 0.035781175
-0.024643365 -0.048623618 -0.035006646 -0.057643477 -0.04231018 -0.041984227 -0.033680458 -0.056753885
00000000: fcfb 4f3d 414a 8139 25ba 3c3d 3996 86bd
00000010: 0a0f 043d 2bb9 7cbd eef0 85bc 0e89 73bc
00000020: f6a6 043d bc5b 5fbc ed75 3dbd c423 c7bd
00000030: 8b70 a43c 2c67 56bd 2916 e63b fc65 003d
00000040: 0c5e 983b 35a2 8fbd 8933 5cbd f9df d6bd
00000050: e433 78bb bb98 de3d f3ed 4bbb 488f 123d
00000060: e2e0 c9bc 8f29 47bd 2163 0fbd 911b 6cbd
00000070: 704d 2dbd a7f7 2bbd 85f4 09bd c376 68bd

b1.weight f4 [32, 32, 3, 3]
0.012352373 -0.07717643 -0.01254957 -0.048168942 0.06962664 0.0069134124 0.020009318 -0.03566313
0.07004526 -0.0020523276 -0.16057883 0.02624472 0.00075973 0.11384633 -0.0046315887 0.07939166
0.042185865 0.104297996 0.03904239 -0.035561986 -0.10294909 0.057974316 0.007827841 -0.08074452
0.016091675 0.07781065 0.051571347 0.0095705595 0.03340315 0.021414153 0.018802788 -0.014715592
0.008303506 0.017782368 0.013188668 -0.018564567 -0.03327587 0.11345387 -0.007007908 0.01701456
-0.069346115 0.04715496 -0.04353902 -0.1319076 -0.093855746 -0.014516131 0.0039881673 -0.047439136
-0.045885853 -0.024230603 -0.04055825 0.20089443 0.011764916 -0.05711257 -0.042089988 0.06988124
-0.031009927 0.016521152 0.07154632 -0.025452528 -0.06390071 -0.016493676 -0.07540816 -0.034098193
0.05829211 0.08147783 0.032764513 0.0844957 -0.01840042 -0.03502981 -0.12989335 0.097207114
-0.044867422 -0.08477888 -0.01486273 0.009447376 0.08502571 0.007450607 0.027919048 -0.025207529
0.022715325 -0.03195013 -0.015935864 0.0225313 -0.06308047 0.059628744 -0.03288779 0.04838003
0.058324058 0.07912963 0.01298349 -0.016507355 0.04803418 0.048582315 -0.053280447 0.027966188
0.041867476 -0.058337882 -0.037398055 0.11411635 0.0094096875 0.03205192 0.011860941 0.03343733
-0.08112353 0.06912661 0.025404364 -0.05530864 0.092511654 -0.027721504 0.011875699 -0.040226668
0.052651368 0.037875447 -0.029161748 0.033510953 0.032563373 0.13275261 -0.048109274 0.0785124
0.07356449 0.11086755 -0.025610032 -0.11770889 0.060467802 0.00058967865 0.02734958 -0.01561638
0.016315233 -0.007220028 0.10594792 0.060740065 0.016336357 0.043316867 -0.037448272 0.100624084
-0.056789197 0.07888893 -0.03802459 -0.0066226525 0.022994637 0.06832973 -0.002362829 0.057191253
-0.040426295 -0.050785463 -0.0279729 -0.0039451104 -0.008189014 -0.06832467 0.06680191 -0.0028404554
-0.034381453 0.0003814295 0.10295669 0.07855035 0.026724307 -0.051193215 -0.05779985 0.028616572
0.14489035 -0.12151612 -0.061076123 0.014410194 -0.030899897 -0.053606316 -0.026617778 0.12218732
0.015391595 -0.01746525 -0.10710487 0.01908569 0.021106139 -0.038786255 0.06875666 -0.08100709
0.13379516 -0.1364172 -0.04065131 -0.05394496 0.0049182842 -0.047947545 -0.09851704 -0.03985407
0.087860785 -0.033317644 -0.04269844 0.033163883 0.04278054 0.09238031 -0.13298625 0.07373639
0.047705267 -0.04654477 -0.028968416 -0.02728165 0.05933958 -0.023936693 0.048012804 -0.08169187
0.014548552 -0.036801297 -0.0015066381 -0.01084483 -0.059725538 -0.07404755 -0.046288945 0.037511162
-0.097267576 -0.04758413 -0.018245911 0.080930494 0.03926105 0.082271844 -0.0107203415 -0.025350884
-0.08271666 -0.11729107 -0.00097429834 -0.025274009 -0.06871004 0.021510264 0.011624195 -0.051692143
0.055494208 0.06275927 0.057753265 0.037796475 0.0747161 -0.020445518 -0.0043822625 -0.004045511
-0.06533046 -0.062704735 -0.053107142 0.102880806 -0.044326797 -0.048876416 0.029906223 0.05017833
0.0324493 -0.036666773 -0.043096237 -0.04865499 -0.00991046 -0.06418559 -0.045286085 -0.062648684
0.056764293 0.01071249 -0.012789671 -0.033963848 -0.1317015 0.00927552 -0.0335743 0.12172986
00000000: 9c61 4a3c ad0e 9ebd b69c 4dbc cc4c 45bd
00000010: 6998 8e3d e889 e23b 95ea a33c 8113 12bd
00000020: e473 8f3d 5880 06bb c76e 24be 2bff d63c
00000030: 9e28 473a 4428 e93d 95c4 97bb 1898 a23d
00000040: 16cb 2c3d 309a d53d eaea 1f3d 72a9 11bd
00000050: f9d6 d2bd 7a76 6d3d 5840 003c 625d a5bd
00000060: b0d2 833c 315b 9f3d 7a3c 533d d6cd 1c3c
00000070: bed1 083d bc6c af3c 4e08 9a3c ab19 71bc
00000080: 6e0b 083c 54ac 913c 4815 583c b814 98bc
00000090: 474c 08bd 815a e83d 98a2 e5bb 1e62 8b3c
000000a0: 5605 8ebd 8f25 413d f955 32bd c912 07be
000000b0: 7137 c0bd 11d5 6dbc 2caf 823b 8a4f 42bd
000000c0: cef2 3bbd 427f c6bc 6820 26bd 45b7 4d3e
000000d0: a2c1 403c dfee 69bd 8d66 2cbd e51d 8f3d
000000e0: 8808 febc 5e57 873c e186 923d d281 d0bc
000000f0: 60de 82bd bf1d 87bc 986f 9abd 8caa 0bbd
00000100: b5c3 6e3d d9dd a63d 1534 063d 150c ad3d
00000110: 7abc 96bc 6b7b 0fbd c302 05be 8614 c73d
00000120: e7c6 37bd 8da0 adbd cf82 73bc 2bc9 1a3c
00000130: f621 ae3d 3924 f43b 7db6 e43c 0580 cebc
00000140: 7d15 ba3c 24de 02bd ee8b 82bc 9093 b83c
00000150: 5530 81bd 453d 743d 59b5 06bd 232a 463d
00000160: 35e5 6e3d b70e a23d b4b8 543c 6f3a 87bc
00000170: 7dbf 443d 40fe 463d 993c 5abd 5919 e53c
00000180: 3b7d 2b3d b4f3 6ebd b42e 19bd d5b5 e93d
00000190: 172b 1a3c e048 033d 6454 423c 95f5 083d
000001a0: 1824 a6bd 4192 8d3d d01c d03c 508b 62bd
000001b0: c076 bd3d 3518 e3bc 4b92 423c b8c4 24bd
000001c0: f6a8 573d 4923 1b3d 9ee4 eebc c842 093d
000001d0: 2c61 053d 4df0 073e 3b0e 45bd 1ccb a03d
000001e0: fba8 963d 870e e33d 21cc d1bc 5c11 f1bd
000001f0: 16ad 773d aa94 1a3a 3a0c e03c d8db 7fbc
00000200: 86a7 853c fc95 ecbb 39fb d83d 93ca 783d
00000210: d3d3 853c 076d 313d 5c63 19bd 0014 ce3d
00000220: ca9b 68bd 8590 a13d acbf 1bbd d602 d9bb
00000230: 405f bc3c 75f0 8b3d b1d9 1abb 6041 6a3d
00000240: 0b96 25bd 6b04 50bd 6c27 e5bc fc45 81bb
00000250: 372b 06bc ceed 8bbd 71cf 883d ef26 3abb
00000260: 91d3 0cbd 9afa c739 f5da d23d 02df a03d
00000270: efec da3c faaf 51bd 89bf 6cbd 4d6d ea3c
00000280: 235e 143e 72dd f8bd f52a 7abd bc18 6c3c
00000290: c821 fdbc 4c92 5bbd 870d dabc 583d fa3d
000002a0: 072d 7c3c 4913 8fbc cc59 dbbd 9859 9c3c
000002b0: c8e6 ac3c 56de 1ebd 4bd0 8c3d 0ce7 a5bd
000002c0: 9901 093e f3b0 0bbe fd81 26bd 64f5 5cbd
000002d0: 8f29 a13b a564 44bd 4dc3 c9bd 053e 23bd
000002e0: 5bf0 b33d 1578 08bd 8fe4 2ebd dad6 073d
000002f0: a63a 2f3d e331 bd3d 8c2d 08be 1b03 973d
00000300: 9966 433d bba5 3ebd 2c4f edbc c47d dfbc
00000310: 0f0e 733d e216 c4bc 13a9 443d 114e a7bd
00000320: 0d5d 6e3c f5bc 16bd 637a c5ba 84ae 31bc
00000330: c4a2 74bd 3ea6 97bd 7a99 3dbd 4ea5 193d
00000340: 3934 c7bd 94e7 42bd 7378 95bc e3be a53d
00000350: 32d0 203d 247e a83d 5fa4 2fbc a8ac cfbc
00000360: 5a67 a9bd 4d36 f0bd 0e68 7fba 700b cfbc
00000370: d9b7 8cbd 4b36 b03c 6873 3e3c 24bb 53bd
00000380: e54d 633d ef87 803d b08e 6c3d 7ad0 1a3d
00000390: c104 993d 5c7d a7bc 1599 8fbb 3590 84bb
000003a0: facb 85bd 576b 80bd e086 59bd 2cb3 d23d
000003b0: 0490 35bd a332 48bd e5fd f43c cb87 4d3d
000003c0: 8fe9 043d e62f 16bd ae85 30bd 744a 47bd
000003d0: 7b5f 22bc bc73 83bd e77d 39bd f44d 80bd
000003e0: ad81 683d 7183 2f3c c58b 51bc ad1d 0bbd
000003f0: c2dc 06be 5af8 173c 3585 09bd 814d f93d

b1.bias f4 [32]
-0.018293835 0.0146031575 0.016213441 -0.015328705 0.05867265 0.003404405 -0.013190549 -0.052814417
0.00092121534 0.014511527 0.00874809 -0.07311791 -0.059560698 -0.020863075 0.054952133 0.025631208
0.008168895 0.0069198897 0.02136437 0.0167204 0.028916081 0.010506536 0.056916267 -0.06459474
-0.07237734 0.033621285 0.03123116 -0.064125635 0.040390354 -0.008376594 0.037225198 -0.009358642
00000000: f4dc 95bc 1542 6f3c 0dd2 843c 4025 7bbc
00000010: bc52 703d 701c 5f3b 2c1d 58bc ee53 58bd
00000020: b77d 713a c1c1 6d3c 2654 0f3c d8be 95bd
00000030: ebf5 73bd 0ae9 aabc 7d15 613d 8af8 d13c
00000040: d4d6 053c 3ec0 e23b 5504 af3c 38f9 883c
00000050: 6be1 ec3c 9b23 2c3c 0821 693d 3f4a 84bd
00000060: 923a 94bd 79b6 093d 7dd8 ff3c 4d54 83bd
00000070: 5b70 253d fb3d 09bc 7379 183d fd54 19bc

b2.weight f4 [32, 32, 3, 3]
-0.11646147 0.038489964 0.037905693 0.020159476 -0.059558697 0.027695626 -0.03284123 0.042978697
0.08658534 -0.0081828525 -0.034378994 0.011248971 -0.066007845 -0.021590155 0.017578624 -0.063244715
0.06675415 -0.064936504 0.062676765 -0.02790015 0.046705946 0.0024375808 0.0080098435 0.005936281
0.08827093 0.0021104277 0.054037787 0.09936144 0.016206088 0.06847142 0.010251063 -0.05927359
-0.08079045 0.06024313 0.041146588 -0.02401929 -0.027837593 0.08651323 0.087305166 -0.08673601
-0.0072265184 -0.027341237 0.06273261 -0.052930865 0.02390586 -0.039381053 -0.098013304 -0.06500705
-0.0072725383 0.037945945 -0.003006089 -0.076045185 -0.044382107 -0.05962973 0.017186519 0.018482009
0.09523413 0.036544174 0.026184723 -0.03324256 -0.0030969107 0.009785333 0.10347452 -0.09289944
0.007579516 -0.018468278 0.025244292 -0.085711256 0.05538063 0.038251042 0.09543912 0.0695349
0.018333385 -0.03112401 -0.07113037 0.038613543 0.06253449 0.08224902 -0.06529556 -0.0008289462
0.001084018 0.005160177 -0.014723959 -0.0030706273 0.02311956 0.07029522 0.09255422 -0.081938386
-0.013614863 -0.1270578 -0.03208378 -0.08313874 -0.030889638 0.036708888 -0.003051591 0.018057821
-0.026279556 0.00037843417 0.038275294 0.0029795575 0.021907594 0.057765786 0.05726962 0.001319748
-0.05533018 -0.04647303 0.01984695 0.014557445 -0.013789377 0.012936769 0.022120368 -0.029616985
-0.01307155 0.005915345 -0.030501956 -0.047282413 0.057520006 -0.08432217 0.12251786 0.010752068
-0.007857951 -0.036572386 0.027577909 -0.067900844 0.0483515 -0.09187438 -0.012436752 -0.002478636
0.013316766 -0.055278096 -0.11144032 -0.027728993 -0.007961116 0.03249954 -0.042004663 0.005970082
-0.038101878 0.0032051408 0.08746343 0.034105577 -0.02052793 0.05255065 0.04441723 0.034980126
0.026326522 -0.04381132 0.10928033 -0.0418416 -0.026048884 0.04095619 -0.010056173 0.02174687
0.061903797 0.06430999 0.01642084 0.08559126 -0.04450804 0.016037969 -0.087879226 0.053573024
-0.013634227 0.005289266 0.017075092 -0.025910504 -0.07995721 -0.024041768 -0.009206913 0.07285808
-0.096027106 -0.009572667 -0.12188457 -0.07188644 -0.003196652 -0.060741115 0.06972814 0.030258108
0.06103042 -0.033921618 0.020504192 0.02878671 0.027258977 -0.032563 0.12353965 -0.0048023034
-0.020120902 0.009273731 -0.001846908 0.014732961 0.034325898 -0.0431532 -0.051769197 0.007231069
-0.044583257 0.053888306 -0.009138001 -0.029406682 0.050981376 0.04058619 -0.054944575 -0.07521109
-0.0266501 0.0010984181 -0.04288587 0.08915231 -0.012768439 0.044393286 -0.007861176 0.006427223
-0.0557956 0.015181401 -0.009062936 -0.040710043 0.032060437 0.024024101 0.045606937 0.06844398
0.002339177 0.013614436 -0.021077372 -0.07731128 0.080749504 0.016465152 -0.0764399 0.063265786
-0.10125038 -0.015341692 0.08371564 0.007359166 0.05001006 -0.03631964 -0.033690996 0.017092068
-0.019691115 0.12331765 0.08556572 -0.01973881 0.0030556938 0.043073744 -0.048529476 0.015101645
0.113903865 -0.029504133 0.07456916 0.024438184 0.005834181 0.013864618 -0.034829628 -0.01449525
0.021451417 0.007421764 0.026964884 0.01165483 -0.06719693 0.09730489 -0.1031591 -0.050807457
00000000: 5a83 eebd a7a7 1d3d 0043 1b3d 7c25 a53c
00000010: d2f3 73bd f0e1 e23c 8784 06bd 6e0a 303d
00000020: a853 b13d 5f11 06bc fdd0 0cbd 9b4d 383c
00000030: 1f2f 87bd d6dd b0bc 0c01 903c 7286 81bd
00000040: 66b6 883d 6efd 84bd ad5c 803d db8e e4bc
00000050: bc4e 3f3d d2bf 1f3b b83b 033c 2285 c23b
00000060: 64c7 b43d 1a4f 0a3b ba56 5d3d 037e cb3d
00000070: a1c2 843c be3a 8c3d 13f4 273c ddc8 72bd
00000080: 7775 a5bd 80c1 763d 5389 283d 1ac4 c4bc
00000090: aa0b e4bc d92d b13d 0dcd b23d a6a2 b1bd
000000a0: 6ecc ecbb bbfa dfbc f479 803d 09ce 58bd
000000b0: 39d6 c33c 074e 21bd 33bb c8bd 6b22 85bd
000000c0: 794e eebb 356d 1b3d ce01 45bb 94bd 9bbd
000000d0: 03ca 35bd 4e3e 74bd beca 8c3c 9567 973c
000000e0: 1d0a c33d 58af 153d 5881 d63c 5a29 08bd
000000f0: 8af5 4abb a952 203c 73ea d33d 1042 bebd
00000100: 975d f83b c94a 97bc 1ecd ce3c 6289 afbd
00000110: cdd6 623d 20ad 1c3d 9675 c33d 5068 8e3d
00000120: e52f 963c c8f7 febc cdac 91bd 3c29 1e3d
00000130: 1512 803d 2d72 a83d aeb9 85bd a34d 59ba
00000140: 9c15 8e3a b416 a93b c33c 71bc 943c 49bb
00000150: 3b65 bd3c f1f6 8f3d 118d bd3d 50cf a7bd
00000160: e010 5fbc 711b 02be 486a 03bd a544 aabd
00000170: 440c fdbc 0f5c 163d 34fd 47bb ffed 933c
00000180: 3948 d7bc 9368 c639 8ec6 1c3d ae44 433b
00000190: 8e77 b33c d19b 6c3d 8d93 6a3d 65fb ac3a
000001a0: e6a1 62bd 815a 3ebd 1296 a23c 5a82 6e3c
000001b0: d7ec 61bc bef4 533c c635 b53c 529f f2bc
000001c0: 0e2a 56bc 83d5 c13b 3ddf f9bc 34ab 41bd
000001d0: 199a 6b3d 1ab1 acbd a5ea fa3d 7129 303c
000001e0: a3be 00bc edcc 15bd 11eb e13c 990f 8bbd
000001f0: 390c 463d a328 bcbd 85c3 4bbc 9d70 22bb
00000200: 912e 5a3c 496b 62bd d33a e4bd ea27 e3bc
00000210: 576f 02bc 3d1e 053d 150d 2cbd ada0 c33b
00000220: b710 1cbd 570d 523b 0720 b33d 4ab2 0b3d
00000230: 312a a8bc 5a3f 573d d7ee 353d 5247 0f3d
00000240: b8aa d73c 8073 33bd 5ece df3d 1962 2bbd
00000250: 7864 d5bc aec1 273d a6c2 24bc 7e26 b23c
00000260: d68e 7d3d f5b4 833d ff84 863c 784a af3d
00000270: 104e 36bd 0f62 833c 06fa b3bd 636f 5b3d
00000280: 1862 5fbc 9451 ad3b 10e1 8b3c 4442 d4bc
00000290: 9bc0 a3bd 3ef3 c4bc 98d8 16bc 9e36 953d
000002a0: dca9 c4bd add6 1cbc 9e9e f9bd 3339 93bd
000002b0: ec7e 51bb adcb 78bd a1cd 8e3d dadf f73c
000002c0: 09fb 793d 65f1 0abd 68f8 a73c 1bd2 eb3c
000002d0: 384e df3c c860 05bd 5b02 fd3d a45c 9dbb
000002e0: 97d4 a4bc d9f0 173c f313 f2ba 8462 713c
000002f0: 5099 0c3d 69c1 30bd f00b 54bd 9af2 ec3b
00000300: ef9c 36bd fcb9 5c3d 8eb7 15bc 48e6 f0bc
00000310: d9d1 503d b43d 263d 900d 61bd 4608 9abd
00000320: 4f51 dabc ccf8 8f3a 18a9 2fbd 7c95 b63d
00000330: b732 51bc bcd5 353d 29cc 00bc 749b d23b
00000340: ed89 64bd 69bb 783c b57c 14bc 93bf 26bd
00000350: ce51 033d 31ce c43c 57ce 3a3d 5b2c 8c3d
00000360: e14c 193b 150f 5f3c 74aa acbc 6055 9ebd
00000370: ff5f a53d ede1 863c 868c 9cbd 7e91 813d
00000380: 5c5c cfbd b85b 7bbc 1b73 ab3d 2925 f13b
00000390: 59d7 4c3d e7c3 14bd 92ff 09bd aa04 8c3c
000003a0: 434f a1bc f78d fc3d 153d af3d 49b3 a1bc
000003b0: 0942 483b 186e 303d d8c6 46bd e46c 773c
000003c0: 6e46 e93d a7b2 f1bc b7b7 983d 9632 c83c
000003d0: a82c bf3b 6c28 633c 83a9 0ebd 7c7d 6dbc
000003e0: e2ba af3c 4532 f33b 76e5 dc3c e6f3 3e3c
000003f0: 8b9e 89bd c947 c73d 1445 d3bd 7b1b 50bd

b2.bias f4 [32]
0.0053947303 -0.04457195 0.00023486686 -0.0036505477 -7.8852485e-05 0.004991496 0.021946652 0.009887586
-0.037937906 -0.02752991 -0.06701129 0.018259915 -0.033727158 0.042383447 -0.009656454 0.036590844
-0.015002071 0.051138505 0.007284101 -0.03539103 0.014296854 0.011667754 -0.029722122 -0.02557012
0.03608969 0.0110123865 -0.015543478 -0.050378405 0.0028859237 -0.031883843 -0.0071459482 -0.05167596
00000000: 47c6 b03b 1491 36bd 9846 7639 073e 6fbb
00000010: 9b5d a5b8 b48f a33b 77c9 b33c 8bff 213c
00000020: c764 1bbd 6886 e1bc 373d 89bd d195 953c
00000030: 7d25 0abd 449a 2d3d 1b36 1ebc 48e0 153d
00000040: 3fcb 75bc 9c76 513d 78af ee3b 2ff6 10bd
00000050: 5a3d 6a3c 1b2a 3f3c cf7b f3bc 6e78 d1bc
00000060: c8d2 133d 4c6d 343c 12aa 7ebc 9659 4ebd
00000070: c421 3d3b a298 02bd 8f28 eabb 2caa 53bd

b3.weight f4 [64, 32, 3, 3]
-0.094444744 -0.012016381 -0.10318302 0.024850026 -0.023532368 -0.044135667 -0.062430136 -0.008939112
0.0027589623 0.012000925 -0.046584997 -0.038883038 0.021720681 -0.04048058 -0.021049835 0.030735109
0.04404174 -0.04293152 -0.05761629 -0.021068035 -0.04779697 0.10161318 -0.035661235 -0.060063973
-0.020605648 0.040233344 0.06419587 0.057996716 -0.012887608 0.006554734 0.085838936 -0.03201501
0.06812191 -0.14323537 -0.101160295 0.18957677 0.066442 0.008221119 -0.028875714 -0.0076029436
0.01843139 0.041692756 -0.018674832 0.07387379 0.13486281 0.017833605 -0.027957587 0.04053252
0.047595758 -0.069442466 0.01470906 0.012858659 0.054754704 -0.037190262 -0.041912306 -0.01813061
-0.031216264 0.018068546 -0.06897807 0.08067232 -0.015480497 -0.022758234 0.061716072 0.030654207
0.034634914 0.013195004 -0.063549 0.01670493 -0.061481636 0.008066059 -0.08297096 0.10081022
-0.06405966 -0.0008621515 0.038152415 0.012614086 -0.020887095 0.02853926 0.038018975 -0.07521381
-0.040376082 0.08342214 0.07146159 -0.08614509 -0.08532656 -0.079542644 -0.05407871 -0.03142328
0.0868163 0.0013405515 -0.028415138 0.0026171356 0.014439467 -0.05256078 -0.030419355 0.0049768207
-0.0075110607 -0.0473396 0.008414021 -0.016543131 -0.03650304 0.03449701 -0.033398435 -0.033537596
0.07225759 -0.05279207 0.044231556 -0.045317248 -0.020276813 -0.06931716 -0.047313835 0.038968764
-0.06192528 0.02233104 -0.05234264 -0.000955459 0.039634634 -0.0733139 0.09751328 0.012785319
0.0353327 0.016027553 -0.0804926 -0.03917114 0.06330331 0.00784982 -0.035185985 0.03171948
-0.07093176 0.0014771395 0.00048649203 -0.093947746 0.032573704 -0.021140577 -0.025958458 -0.047975775
0.053889036 -0.04559385 0.06410102 -0.019102175 -0.002806521 0.026215708 -0.079939276 0.08728374
0.06808165 0.06601217 0.010633971 0.031253714 -0.043310687 -0.026056986 0.031797923 0.030327328
0.04832317 -0.069950074 0.012150232 -0.046038106 0.03407134 -0.05537168 -0.009676439 -0.030592866
0.0044055255 0.10121386 0.0015703129 -0.09074733 0.063354105 0.021588478 0.057727106 -0.07831158
-0.101244226 0.019525426 0.0479192 0.029724378 -0.045421004 -0.018937182 -0.04307875 -0.018703168
-0.049684763 -0.021180404 0.0327554 -0.03110345 0.07128711 -0.0030839017 -0.0022627877 0.023121528
0.0076516094 -0.0059421347 0.05819816 0.056631535 -0.07241935 0.049187634 -0.04876402 0.06512152
-0.050852813 -0.08173552 -0.12961417 -0.0031763406 0.13012338 -0.11463574 -0.03325568 0.0385926
0.038066085 -0.060161904 0.03396518 0.11145684 -0.02139812 0.030303717 0.042533085 -0.02690521
0.026843406 0.02834625 -0.047373906 0.036034226 -0.040708754 -0.040882222 -0.012279212 0.011322965
0.0617259 -0.019652512 -0.05104717 0.057722896 -0.04119887 0.007317082 -0.10490859 -0.13279693
0.040904354 -0.04837326 0.0667393 0.062750556 0.02285222 -0.029284216 0.063982286 0.010250503
-0.049379062 0.02411667 -0.04042977 0.049978353 0.030713951 0.04769003 -0.011475328 -0.09196506
-0.020691782 0.044824358 -0.02863268 0.023829129 -0.025867853 0.005785916 -0.02273789 0.012527738
0.044957723 -0.014861757 0.025831824 -0.04741018 0.020343091 -0.018861411 -0.0033113402 0.016151015
00000000: 3f6c c1bd 5be0 44bc 9f51 d3bd 4892 cb3c
00000010: f4c6 c0bc 9ac7 34bd beb6 7fbd 5a75 12bc
00000020: b5cf 343b 879f 443c e9cf 3ebd d243 1fbd
00000030: 92ef b13c f7ce 25bd b470 acbc 32c8 fb3c
00000040: 1d65 343d f6d8 2fbd 0fff 6bbd df96 acbc
00000050: c1c6 43bd 921a d03d 8411 12bd a405 76bd
00000060: 2dcd a8bc b8cb 243d 2079 833d f78d 6d3d
00000070: 8c26 53bc 18c9 d63b 53cc af3d 2c22 03bd
00000080: 8083 8b3d 4bac 12be 212d cfbd 6a20 423e
00000090: be12 883d dfb1 063c c38c ecbc 1d22 f9bb
000000a0: 6dfd 963c 06c6 2a3d f6fb 98bc 244b 973d
000000b0: 7a19 0a3e c817 923c 4f07 e5bc 6d05 263d
000000c0: c5f3 423d da37 8ebd 45fe 703c 20ad 523c
000000d0: 7846 603d d154 18bd 3dac 2bbd a586 94bc
000000e0: 40b9 ffbc 7d04 943c 6044 8dbd 8837 a53d
000000f0: e9a1 7dbc 7a6f babc fec9 7c3d 881e fb3c
00000100: 57dd 0d3d dc2f 583c fa25 82bd c7d8 883c
00000110: 2bd4 7bbd 8127 043c aeec a9bd 9775 ce3d
00000120: b631 83bd 0202 62ba b545 1c3d 50ab 4e3c
00000130: 6a1b abbc 2bcb e93c c9b9 1b3d b309 9abd
00000140: 6461 25bd 3ad9 aa3d 745a 923d d66c b0bd
00000150: b1bf aebd 41e7 a2bd a381 5dbd b2b5 00bd
00000160: bfcc b13d 72b5 af3a ddc6 e8bc 4084 2b3b
00000170: 8493 6c3c f949 57bd 0332 f9bc 9914 a33b
00000180: 581f f6bb 2be7 41bd f6da 093c 7685 87bc
00000190: 3684 15bd bd4c 0d3d cccc 08bd b85e 09bd
000001a0: cafb 933d 7f3c 58bd 262c 353d 949e 39bd
000001b0: 8f1b a6bc 28f6 8dbd 27cc 41bd b69d 1f3d
000001c0: 5da5 7dbd 96ef b63c 3c65 56bd c577 7aba
000001d0: ed57 223d 9925 96bd 0bb5 c73d 8479 513c
000001e0: 05b9 103d 374c 833c 4ed9 a4bd eb71 20bd
000001f0: 2aa5 813d 889c 003c 2e1f 10bd 49ec 013d
00000200: ac44 91bd 949c c13a db0f ff39 ad67 c0bd
00000210: 016c 053d 012f adbc d5a6 d4bc 3f82 44bd
00000220: c0ba 5c3d 9ec0 3abd 6547 833d 2a7c 9cbc
00000230: 9ced 37bb 53c2 d63c 34b7 a3bd d1c1 b23d
00000240: 646e 8b3d 6331 873d 1b3a 2e3c e503 003d
00000250: 8c66 31bd 7675 d5bc 8a3e 023d 0471 f83c
00000260: 84ee 453d fc41 8fbd c411 473c 7492 3cbd
00000270: 648e 0b3d 6acd 62bd ed89 1ebc e49d fabc
00000280: 3a5c 903b 3649 cf3d f5d2 cd3a bcd9 b9bd
00000290: ccbf 813d 52da b03c 4273 6c3d d261 a0bd
000002a0: 2259 cfbd c9f3 9f3c ec46 443d 8a80 f33c
000002b0: 600b 3abd 2622 9bbc 5873 30bd 6337 99bc
000002c0: 4082 4bbd 8782 adbc 872a 063d aacc febc
000002d0: fafe 913d 491b 4abb 474b 14bb 5c69 bd3c
000002e0: 5aba fa3b 3db6 c2bb 3261 6e3d 78f6 673d
000002f0: 9950 94bd f978 493d c8bc 47bd 6e5e 853d
00000300: 0a4b 50bd f464 a7bd 94b9 04be 272a 50bb
00000310: 103f 053e 25c6 eabd 1c37 08bd 4613 1e3d
00000320: 2feb 1b3d 546c 76bd 131f 0b3d 7c43 e43d
00000330: 1c4b afbc 803f f83c 2c37 2e3d 5168 dcbc
00000340: b4e6 db3c 6536 e83c 240b 42bd a098 133d
00000350: 39be 26bd 1e74 27bd bf2e 49bc f583 393c
00000360: 4cd4 7c3d 4efe a0bc d616 51bd d86e 6c3d
00000370: 25c0 28bd 22c4 ef3b 51da d6bd ebfb 07be
00000380: 538b 273d 0a23 46bd 9dae 883d 5d83 803d
00000390: 9434 bb3c 74e5 efbc 2509 833d baf1 273c
000003a0: b341 4abd 5390 c53c b099 25bd 1ab6 4c3d
000003b0: d39b fb3c 9f56 433d 0403 3cbc 2d58 bcbd
000003c0: d081 a9bc bf99 373d 158f eabc 4e35 c33c
000003d0: d2e8 d3bc c897 bd3b d044 babc 2441 4d3c
000003e0: 9725 383d ba7e 73bc 439d d33c 2d31 42bd
000003f0: 8ea6 a63c 3f83 9abc 1203 59bb 224f 843c

b3.bias f4 [64]
0.020052185 0.02732832 -0.042509437 0.021304425 0.008392234 -0.009938654 -0.06330079 -0.024951966
0.05501703 -0.032310978 0.004845979 0.03315241 0.0009970118 0.05674974 -0.04719347 0.06169053
0.043854788 0.04216671 0.034892228 0.005481645 0.04294608 0.03927385 -0.025974123 -0.04132251
-0.055185586 -0.03481413 0.038939156 -0.04795285 -0.040365487 0.025060631 0.007096543 0.042753268
-0.061563928 -0.049808446 0.037083 0.043956067 0.041875415 -0.05013139 0.014501668 -0.019869104
0.028292993 -0.015693739 -0.010332945 -0.028513258 0.02960112 -0.030077232 -0.022429543 0.030174589
0.04526868 0.026728293 0.03389184 -0.02131303 -0.027549744 -0.0077619436 0.030718332 0.00074113946
-0.05138203 0.005759616 0.004429656 0.050750174 0.012213864 0.0147927515 -0.031485192 0.014726501
00000000: 7b44 a43c a4df df3c 601e 2ebd 9e86 ae3c
00000010: 957f 093c bcd5 22bc d8a3 81bd 1168 ccbc
00000020: 8a59 613d 8458 04bd 05cb 9e3b d2ca 073d
00000030: 2aae 823a 6a72 683d f14d 41bd 36af 7c3d
00000040: 14a1 333d 00b7 2c3d 27eb 0e3d 5f9f b33b
00000050: 3be8 2f3d 9edd 203d afc7 d4bc cb41 29bd
00000060: 480a 62bd 4399 0ebd aa7e 1f3d 356a 44bd
00000070: 4856 25bd f44b cd3c 1e8a e83b 0d1e 2f3d
00000080: 752a 7cbd f103 4cbd 58e4 173d 470b 343d
00000090: 8e85 2b3d 9356 4dbd 6798 6d3c 88c4 a2bc
000000a0: b5c6 e73c 2890 80bc 834b 29bc a394 e9bc
000000b0: 0c7e f23c 8764 f6bc 29be b7bc b330 f73c
000000c0: a76b 393d 4bf5 da3c 2cd2 0a3d aa98 aebc
000000d0: 00b0 e1bc e757 febb 03a5 fb3c 0749 423a
000000e0: f775 52bd 29bb bc3b a626 913b 6adf 4f3d
000000f0: a91c 483c 4c5d 723c 9ef6 00bd 6c47 713c

c1.weight f4 [64, 64, 2, 2]
0.03498275 0.013429187 0.02499697 0.060692534 0.027669154 -0.019602343 0.065454245 -0.00015383994
-0.05679909 0.0068337694 0.04346262 -0.006249599 -0.033059098 -0.062344886 -0.10934895 -0.002499671
0.040913858 -0.025707707 0.16115266 -0.039760947 0.058126137 -0.013174295 0.070199855 -0.020055974
0.058145314 0.029038332 0.03862837 -0.02291549 -0.0105581805 -0.028289184 -0.026483249 0.017772708
-0.004033819 0.031586073 -0.06561368 -0.03267038 0.0034810677 -0.043666482 -0.032376263 0.025308713
0.044820152 0.058528617 -0.06981601 0.04892207 0.023294352 -0.040102214 0.026014797 -0.03696186
0.024467327 -0.005709097 0.03008491 0.026435196 -0.061754808 -0.009288698 -0.019963631 -0.02986648
0.025171287 0.021512657 -0.03264191 -0.03211981 0.01357007 0.05262407 -0.057083327 -0.016912103
-0.017335244 -0.042076856 0.083627775 -0.01830078 -0.059101336 -0.055417962 0.016946534 0.009768414
0.042907357 0.061558366 0.081041574 -0.0038288236 -9.544939e-05 0.0062559843 0.100335136 -0.029331896
0.0030773357 -0.030181438 0.05205945 0.0031854303 -0.048176356 -0.019604467 0.07747767 0.018752674
0.05247488 -0.029675685 0.12027787 0.021350276 0.053296827 -0.045473777 -0.045509085 -0.044622652
0.042259276 -0.040299088 0.0043838248 0.030693166 -0.04412751 -0.040367864 -0.024478307 0.050195113
0.05568078 -0.043549247 0.004628836 0.026960127 -0.01357013 0.01993145 0.005539641 -0.062398598
0.009075053 0.009284981 0.052448764 0.042815357 -0.05846058 -0.053260475 -0.019803414 -0.051558025
-0.0065365583 -0.00723397 -0.017877994 0.058365893 0.008565351 -0.06061721 0.0006076599 0.027509056
-0.048653126 -0.035346873 -0.019369252 0.0051771626 0.002874501 -0.017503992 -0.027787074 -0.046470106
-0.053366914 -0.013123117 0.035220217 -0.058300078 -0.043982893 -0.003219366 0.06538741 0.03803636
-0.0017265081 0.0053782687 -0.032473348 0.03786946 0.018164523 0.037042826 0.029829748 0.0076461956
-0.042521045 -0.002341129 -0.07996259 -0.0065334514 -0.03515388 0.0443151 0.018385405 0.05921325
-0.017975278 0.030098572 -0.06772876 -0.05634764 0.049973562 -0.031063579 0.008148846 -0.016929325
-0.020887285 0.016515933 -0.083338924 -0.06040507 0.056383595 -0.04011938 -0.041859485 -0.04488308
-0.020634092 -0.017485276 -0.08551438 0.04675471 -0.058440246 0.0034388453 0.071610354 0.039359577
-0.04921992 0.020261124 0.014951706 0.028207883 -0.009434082 -0.033263676 0.013947018 0.03230221
-0.02996955 -0.04811663 0.079381265 0.03403901 -0.0565923 0.042276762 0.0069351196 -0.048561692
0.012222394 0.03375162 -0.021948935 0.0096670315 -0.007930644 0.047351375 -0.054479264 -0.02997347
0.05687073 -0.004946582 0.038851637 0.01230241 0.012774281 0.059550412 0.049557157 -0.036546297
0.014130011 0.045631118 0.10382364 -0.044248153 -0.040499672 -0.05864349 0.020330518 0.058299497
-0.010277167 -0.020574495 0.031443417 0.028069615 -0.026139408 -0.012646921 0.050020706 -0.06475353
0.041629627 0.04107982 -0.057866942 -0.0010824353 -0.017487787 0.010579139 0.028837124 -0.0131576145
0.032508574 -0.055491827 -0.05013476 -0.041861184 0.021498367 0.04723555 0.014676027 -0.004169472
-0.025740951 0.061876953 -0.021232395 -0.009169027 0.027764492 0.056757033 0.08546668 -0.008159131
00000000: 124a 0f3d 1806 5c3c 72c6 cc3c bc98 783d
00000010: 6caa e23c 1895 a0bc e00c 863d 1850 21b9
00000020: 2aa6 68bd d0ed df3b dc05 323d 70c9 ccbb
00000030: fa68 07bd 5a5d 7fbd 58f2 dfbd 85d1 23bb
00000040: 4a95 273d f898 d2bc 3405 253e 60dc 22bd
00000050: ac15 6e3d 00d9 57bc f1c4 8f3d 6d4c a4bc
00000060: c829 6e3d cce1 ed3c c838 1e3d 44b9 bbbc
00000070: 38fc 2cbc b8be e7bc 66f3 d8bc 1298 913c
00000080: 202e 84bb 6660 013d 7760 86bd 60d1 05bd
00000090: a022 643b a0db 32bd f99c 04bd 3854 cf3c
000000a0: 5695 373d b4bb 6f3d b2fb 8ebd 8262 483d
000000b0: ccd3 be3c 3842 24bd fc1c d53c 5265 17bd
000000c0: b46f c83c 6013 bbbb a174 f63c a08e d83c
000000d0: 9cf2 7cbd a02f 18bc c58a a3bc 8caa f4bc
000000e0: 0434 ce3c 503b b03c 86b3 05bd 1090 03bd
000000f0: 0055 5e3c 568c 573d 35d0 69bd 408b 8abc
00000100: a402 8ebc c858 2cbd 0a45 ab3d 84eb 95bc
00000110: 3e14 72bd f2fd 62bd 75d3 8a3c b30b 203c
00000120: a0bf 2f3d a024 7c3d 20f9 a53d 00ed 7abb
00000130: 002c c8b8 00ff cc3b 827c cd3d 7249 f0bc
00000140: 20ad 493b 103f f7bc 4a3c 553d a7c2 503b
00000150: 9254 45bd 8c99 a0bc 9dac 9e3d 359f 993c
00000160: e6ef 563d 6c1a f3bc 3e54 f63d c6e6 ae3c
00000170: c64d 5a3d b642 3abd bc67 3abd 3ec6 36bd
00000180: 1018 2d3d a810 25bd 30a6 8f3b 3c70 fb3c
00000190: 0cbf 34bd c658 25bd bb86 c8bc 6499 4d3d
000001a0: 8811 643d b260 32bd 7ead 973b 7cdb dc3c
000001b0: 4055 5ebc 4847 a33c e085 b53b ac95 7fbd
000001c0: 88af 143c 0820 183c 84d4 563d 285f 2f3d
000001d0: 5c74 6fbd a827 5abd c53a a2bc 822e 53bd
000001e0: a030 d6bb f00a edbb df74 92bc 1311 6f3d
000001f0: b055 0c3c c049 78bd 5e4b 1f3a ac5a e13c
00000200: 8048 47bd e2c7 10bd 44ac 9ebc 30a5 a93b
00000210: 2062 3c3b 8864 8fbc b8a1 e3bc 7057 3ebd
00000220: 4497 5abd 5802 57bc 1343 103d 10cc 6ebd
00000230: 6827 34bd 00fc 52bb d6e9 853d 04cc 1b3d
00000240: 004c e2ba 303c b03b c602 05bd 021d 1b3d
00000250: c4cd 943c 38ba 173d 845d f43c f08c fa3b
00000260: 8c2a 2ebd a06d 19bb 6dc3 a3bd 9016 d6bb
00000270: 84fd 0fbd c083 353d fd9c 963c 9889 723d
00000280: e440 93bc 4891 f63c 60b5 8abd c8cc 66bd
00000290: 14b1 4c3d 0c79 febc bd82 053c 5eaf 8abc
000002a0: d01b abbc 6c4c 873c 99ad aabd 4f6b 77bd
000002b0: 7cf2 663d 3854 24bd da74 2bbd 52d7 37bd
000002c0: d408 a9bc 483d 8fbc 2a22 afbd de81 3f3d
000002d0: 0a5f 6fbd 405e 613b 73a8 923d 8237 213d
000002e0: d49a 49bd a8fa a53c 00f8 743c 3814 e73c
000002f0: 6891 1abc 7e3f 08bd 0982 643c 524f 043d
00000300: b482 f5bc f215 45bd a592 a23d 7d6c 0b3d
00000310: 54cd 67bd 662a 2d3d 0040 e33b a0e8 46bd
00000320: 7040 483c 243f 0a3d 41ce b3bc 7862 1e3c
00000330: 88ef 01bc 84f3 413d a625 5fbd ec8a f5bc
00000340: 48f1 683d f016 a2bb e522 1f3d 0c90 493c
00000350: 384b 513c 22eb 733d 72fc 4a3d 92b1 15bd
00000360: 9081 673c b2e7 3a3d 7da1 d43d 8d3d 35bd
00000370: fce2 25bd 2834 70bd 308c a63c 74cb 6e3d
00000380: 9061 28bc d88b a8bc d0ca 003d 40f2 e53c
00000390: 5022 d6bc 0835 4fbc 83e2 4c3d 809d 84bd
000003a0: d483 2a3d 5043 283d e305 6dbd 80e0 8dba
000003b0: 8c42 8fbc 2054 2d3c d53b ec3c 0993 57bc
000003c0: b627 053d 664b 63bd 1b5a 4dbd a276 2bbd
000003d0: 581d b03c 107a 413d b873 703c 11a0 88bb
000003e0: b0de d2bc b072 7d3d 8fef adbc b039 16bc
000003f0: 5c72 e33c 107a 683d 2809 af3d e0ad 05bc
